scientificProjectainn/model.npz (npz, 128406 bytes, 4 tensors)

weights_input_to_hidden f8 [20, 784]
000000 52 52 2e e8 e6 93 d6 bf 60 c9 cb e7 ba 8e b8 bf
       -0.35277722047729754 -0.09592788848002476
000010 36 d9 e5 9b e8 d6 d5 bf d4 71 77 dc ef 01 cc bf
       -0.34124198173903453 -0.21880911126107938
000020 c0 fc fe 04 0f 67 9f bf be 34 47 df 5d 8d df 3f
       -0.030666575126585327 0.4930033379030866
000030 a2 39 25 18 ef 48 db bf 28 be a3 f6 cd fa b2 bf
       -0.4263265357775713 -0.0741394736430655
000040 d8 04 0f d4 af 29 c3 bf a8 01 f1 e4 64 a6 b7 bf
       -0.14970968107630855 -0.0923827227534334
000050 78 20 9a 95 c2 5e da bf 48 52 66 cc df 4b c4 bf
       -0.41203369721961947 -0.158565497211969
000060 4b 5e a1 ba b9 b7 de 3f e2 2a 80 db 4f 83 cf bf
       0.47996371484393724 -0.24619482248120678
000070 e8 70 ee b5 78 6d d0 bf 7a 27 cc 7d c0 8a cb 3f
       -0.25668161169757164 0.215171872543859
000080 8c 64 db 36 97 90 c9 bf c4 da 5d 8f a9 89 ce 3f
       -0.1997250573975048 0.2385761213333436
000090 74 18 4f 41 ce 4f cb 3f 40 2c 5d ef 2a 44 c6 3f
       0.21337297619738005 0.17395531356518923
0000a0 98 14 bb c6 e5 cb c9 bf d4 dd 90 d1 50 fe d3 bf
       -0.20153495982791436 -0.31239719834726754
0000b0 40 4e 00 25 6a 6d b9 3f 2e 45 94 0b 77 5d da 3f
       0.0993257847151705 0.4119546521261154
0000c0 00 b4 d3 40 db 2e d7 bf 8e 39 ef e2 27 bf d4 3f
       -0.3622348912311395 0.32416722451753166
0000d0 8a 03 62 90 5b 95 df bf 80 3f 48 44 57 df da 3f
       -0.4934910688389712 0.4198816458529038
0000e0 c8 94 82 42 27 63 c2 bf 50 2e 65 09 b2 ed a6 3f
       -0.14365092036783822 0.044782222411040906
0000f0 d4 4a 68 d0 2c 7e c4 bf 9c e0 66 28 93 4b c7 bf
       -0.16010055709974458 -0.18199386093852332
000100 46 9e 70 7a 83 27 d2 3f 82 7c 11 66 e2 76 dc bf
       0.28366171795866923 -0.44475612609489457
000110 a7 49 33 b3 52 c4 df 3f 5b 7d ad 34 b5 37 64 3f
       0.49635760784181077 0.0024679698157538516
000120 af 76 3c e4 f6 cc da bf 57 ba ec d2 d5 a2 bb bf
       -0.4187600354069713 -0.10795341872720009
000130 03 d1 24 a4 85 9f cf 3f 1f 7d 79 50 3d 9a c6 3f
       0.2470557261928051 0.17658201627180234
000140 03 f5 62 d9 48 9a db bf 49 07 a7 ca f0 ff bb bf
       -0.43129178265719775 -0.10937409350938511
000150 ee 78 34 63 0f 8a cd 3f 48 24 1c 98 fb 31 bf bf
       0.2307757601165074 -0.12185642684575371
000160 6d 5e 26 1b e7 21 d6 bf 0c 0b 70 b9 0a 7a da 3f
       -0.34581926013331704 0.41369884595057793
000170 3d f1 8e 45 0b 77 d6 bf d5 a9 51 e8 89 e2 de bf
       -0.35101587097939896 -0.48257682502176397
000180 17 53 48 79 8b 1c c3 bf 1e 27 fa ca 5a f0 ca bf
       -0.14930861875532095 -0.2104600421046649
000190 cd df 0d dd c3 ff ce 3f 1e 7d 7d 0d 8a 05 db bf
       0.24218033116971896 -0.42221309010888486
0001a0 28 21 91 f1 bc eb b9 bf c8 88 79 7d 74 a4 cd 3f
       -0.10125332734708492 0.2315812695188184
0001b0 a4 2b 0b 01 9f db d2 3f 8c 84 46 1f a8 89 c0 3f
       0.29465460874478766 0.1292009499275405
0001c0 94 e7 fd 25 b9 7c de bf d8 82 55 5f 7d 68 b7 3f
       -0.4763625021947686 0.09143813683977997
0001d0 98 19 e0 4e f4 b2 b8 3f e1 67 5a de b3 06 ca 3f
       0.09648062635105814 0.20332954747283252
0001e0 20 af a9 f2 f1 42 d7 3f 54 a7 9b 64 26 9c db 3f
       0.36346100518743363 0.4314056379795279
0001f0 c2 e9 e0 d9 b0 f6 cb 3f 87 1a 3f 84 0b 18 d9 3f
       0.21846590651132486 0.3920925895185196
000200 15 c9 44 00 e8 de d9 bf 51 f2 ef 80 fe f2 a9 3f
       -0.40423011804809167 0.050682023276725226
000210 d9 82 77 6e 75 1b d1 bf a2 68 9f 06 3e 1a b9 bf
       -0.267300947072767 -0.09805667554556632
000220 43 1f 18 96 0e d2 cf bf ba b4 87 75 fa b2 d7 3f
       -0.24859793022937468 0.37029897191571204
000230 f2 1d 48 fb 9a fe d5 bf 5e 98 eb f9 a6 78 d6 bf
       -0.3436648801730079 -0.3511140289905422
000240 de cb 85 8b 99 83 cb bf 84 1e ec b7 f4 00 87 3f
       -0.21495360672596936 0.011232292044510268
000250 9c ef 34 36 d5 58 d8 bf 67 48 fe b9 0b af c0 bf
       -0.3804219273913476 -0.13034197408393597
000260 84 b9 2d 9f 6d 9f cd bf 0b 73 24 18 3a aa ca bf
       -0.2314278628577534 -0.2083199136622159
000270 54 6e 68 e2 de f2 c8 3f 9f b8 6b a4 19 84 8f bf
       0.19491182379794003 -0.015388679819320848
000280 a9 f6 48 ce 3b 20 d8 bf 49 78 be 70 95 70 d3 bf
       -0.3769673838140571 -0.3037465668693398
000290 50 e5 51 d3 40 d2 c3 bf 4c ab ef c1 4b 34 c9 3f
       -0.15485391920428038 0.19690844506780036
0002a0 aa c3 51 99 93 3a d9 bf 90 f7 e3 13 5e fb b8 3f
       -0.3942002293834387 0.09758556352241343
0002b0 dd 40 d1 f1 48 63 90 3f b4 fe 87 a6 54 9d d4 bf
       0.01600374198852782 -0.3221027017861886
0002c0 15 19 8f 6b ea 25 d0 bf bf f8 62 8b 28 33 d2 3f
       -0.25231419090086266 0.28437245952580875
0002d0 ab 52 0e d7 8b dc 95 bf ef 28 da b5 8d 06 6a bf
       -0.021349129677747197 -0.0031769531040640657
0002e0 ef 3f 1e 8e 92 7d cc bf d2 c4 a3 4f 5e b9 d6 3f
       -0.22258216800082617 0.35506398942295647
0002f0 b8 9c da f3 a7 8d b5 bf a0 04 f3 9d f7 be d4 bf
       -0.08419275001016302 -0.3241557161782769
000300 22 3a 36 eb 70 f5 cb bf 33 90 b1 c3 5b ff ca bf
       -0.2184277676100957 -0.21091792159416087
000310 2c 12 a8 0f e1 28 af bf 9e af ba bd 89 d7 e1 3f
       -0.060858758126446894 0.5575607972764265
000320 15 cd c8 ae 67 dd c5 3f c2 b8 ac ba d4 2e d0 bf
       0.1708192447127678 -0.25285833578062633
000330 67 b5 28 83 a2 c4 d0 bf 83 52 37 c1 f9 5b d7 bf
       -0.26200163658616876 -0.3649887453914646
000340 fa b8 d4 4f c1 8b e0 bf 07 86 d5 8b cd 47 dd bf
       -0.5170599517057604 -0.4575075021330978
000350 97 15 3d 1d 4d 51 c4 bf 77 f4 a7 3a b3 91 a5 3f
       -0.1587311165587095 0.04212722865120438
000360 3b cf 90 91 32 21 8a 3f 09 4b 38 e9 25 50 d3 bf
       0.012758631770431008 -0.30176685119037977
000370 51 73 68 8e 31 87 d9 bf 96 03 b8 1e d5 e9 da 3f
       -0.3988765612319201 0.42052200317271493
000380 10 6d c5 94 8a 36 ad 3f 88 5a 1f a9 69 ff b9 bf
       0.057056742344423594 -0.10155353907553366
000390 44 c0 90 5e 47 bd dd 3f ef f4 da 7e 20 a2 d9 3f
       0.46467766032128943 0.40052044285023575
0003a0 a6 8f 7b 10 34 00 de bf f9 71 31 f5 81 a4 b7 bf
       -0.46876241311678724 -0.09235393749390387
0003b0 f3 9b cc 6f 56 c9 b7 3f c9 e5 9d 57 0a 61 a4 3f
       0.09291591863130559 0.03980285949269164
0003c0 99 6c f2 7b a3 ce b7 bf a1 ba 21 04 3b 31 cc bf
       -0.09299680496262609 -0.22025239660020637
0003d0 a2 9c 51 fa 91 2e ca bf 06 9b f3 07 44 42 b8 3f
       -0.20454621050450777 0.0947611350453422
0003e0 55 9e 6d a2 da 97 d4 bf 55 6e 2c d0 78 ee e3 3f
       -0.32176843511704095 0.6228603425874534
0003f0 1b 68 c5 5b 76 8c c6 3f 37 6a 2b 19 ed 4a d9 3f
       0.17616157036792476 0.39519813020675393
000400 1a 6e 1d 5e 16 8d af 3f 45 c0 35 08 44 a4 d0 3f
       0.061623286236422284 0.2600259857345047
000410 16 35 e3 f3 c7 84 dc bf dc 6e 4e c6 41 fe d2 3f
       -0.44560431306020243 0.29676861158234913
000420 d8 db 73 f2 b1 af d3 bf ea 10 94 d7 01 3c c4 bf
       -0.30759857823380576 -0.15808127428329694
000430 4b 57 a7 12 3c ad e2 bf 3d 29 8b d1 93 e4 d5 bf
       -0.5836468090371708 -0.3420762583088111
000440 be b8 20 25 e3 f2 e4 bf a0 bd 0c 73 7d f9 b4 3f
       -0.654649326815864 0.08193191584427106
000450 d1 1a 36 f0 c4 a0 a4 bf c0 a6 55 16 b2 c0 d1 3f
       -0.04028907234446922 0.2773862093077746
000460 28 2b 24 50 94 f8 c1 3f 84 48 01 bb e8 2d c3 3f
       0.14039853966854676 0.14983853465179575
000470 92 e0 fe 14 d8 6b cd 3f 69 20 5b 65 74 9e de 3f
       0.2298536398427627 0.47842130563777246
000480 37 a3 6f 23 4f 25 dc bf 5f a3 de a3 6f 43 d2 3f
       -0.4397771688514242 0.2853659725465629
000490 38 ed 73 8a 77 5e a5 3f a7 c1 75 0b a4 82 c1 bf
       0.04173635068033338 -0.13679934081620823
0004a0 11 97 1c 14 e7 23 c5 3f d3 ce 53 4d 28 11 e1 bf
       0.16515816194549207 -0.5333444128322874
0004b0 1c 1b 1e 0f 1e 30 d3 3f 31 12 51 76 dd ab c1 bf
       0.2998118541367363 -0.13805740620786502
0004c0 04 c9 3b 93 09 58 c3 3f 75 d1 ba a6 66 50 bc bf
       0.15112418831956387 -0.11060182161856409
0004d0 9c 01 f6 da bd 53 c1 3f 96 09 a2 cd d8 10 ef 3f
       0.13536809150174356 0.970806504847405
0004e0 a7 8f 5e cc 9a 49 e3 3f 4b 79 e4 ee 79 70 ef 3f
       0.6027349464024966 0.9824800172680538
0004f0 58 f6 1d 2b a8 1f ad 3f e3 d0 5b 7d 2b ec d8 3f
       0.05688214804011399 0.3894146656232477
000500 0d 55 00 f9 15 5b db bf 43 42 fc 10 b0 aa c3 3f
       -0.42743443790944086 0.15364647702564768
000510 64 28 7f 6d bf 18 dc bf 53 f5 89 9e 5a 04 e2 bf
       -0.4390104836753663 -0.5630314918959506
000520 96 4a d5 cd d0 3e b4 bf 03 0a fe 22 04 87 d3 3f
       -0.07908349061225758 0.30511573235722284
000530 96 ee e2 0c 51 93 dc 3f 49 fb 71 fc 66 0c d8 bf
       0.44649149187510184 -0.37575697567801974
000540 4c ed 59 64 a0 0b c4 bf bf 65 1a e4 67 24 a1 3f
       -0.156604813575408 0.03348087939702848
000550 39 d3 64 9a 9e ad 79 bf 97 3d 19 f7 ea 30 a3 3f
       -0.006269092124331626 0.0374825884470013
000560 7b 6a a6 c6 ea 55 d7 bf cb 69 8d f4 a5 de b3 3f
       -0.3646189632360472 0.0776160928775546
000570 15 01 72 08 fc da d2 bf a9 98 a0 47 a3 a6 d0 3f
       -0.29461575340975915 0.2601707648740424
000580 20 47 97 96 df 96 9f 3f 03 8f 93 4d 15 fe c7 3f
       0.03084897381433571 0.1874415043631573
000590 c6 46 84 e2 3d 5f e1 bf 9f da 31 20 6f a4 e3 bf
       -0.542876188674392 -0.6138225201419408
0005a0 8f 82 72 89 0f 92 bb bf 31 1c b2 61 c9 08 c8 bf
       -0.10769745927474104 -0.187768147185325
0005b0 de 67 5a fa 81 9c de 3f 31 27 04 0c 62 d8 c8 3f
       0.4783024735312419 0.19410348498086585
0005c0 db 19 f1 24 62 7c d5 3f a9 55 9e 72 c0 9f c5 3f
       0.33571675880048496 0.16893773647886448
0005d0 b1 a9 af 1a 83 3a a4 3f 91 3f b0 3f 1c 1d da 3f
       0.039508912093725874 0.40802675456597465
0005e0 14 7d de 91 9f b3 d9 3f 3f 70 48 6d 18 9b c9 3f
       0.40158833737400923 0.20004563652116933
0005f0 74 84 6d c2 21 1a b4 3f 6e 92 cc f5 1e d7 b1 bf
       0.07852374073765295 -0.0696887350173456
000600 dc 5c c1 03 7f 5b d0 bf d6 59 71 94 05 71 e2 bf
       -0.25558448187571314 -0.5762966059945096
000610 05 8e 27 55 5f 7b cb bf 12 23 9d f7 dc f5 b2 3f
       -0.21470252664504144 0.07406407399424733
000620 f8 2e 5a bf 2f 4a bf bf 4f 47 10 77 f5 41 90 bf
       -0.12222574636160377 -0.01587661303717108
000630 a7 4b 45 99 3a 6d cb 3f 83 73 bf 13 17 92 d9 bf
       0.21427090152664371 -0.3995416348314437
000640 f8 1e 4b 8c 57 95 da bf 0d 57 6f f3 f4 3d b2 3f
       -0.4153651113560808 0.07125788634524728
000650 68 92 16 25 e5 fb d2 3f 5f 51 1f e0 79 e7 de bf
       0.2966244566144156 -0.4828781784720117
000660 13 0e c8 84 09 96 c2 3f b3 d4 3f a6 9b c6 e1 bf
       0.14520377143354377 -0.5554941412980469
000670 10 95 e2 74 27 dd cc bf 68 92 4f 3f df 2a a2 bf
       -0.22549908835677757 -0.03548333785855534
000680 11 d1 4f 43 f7 a5 e4 bf 97 b4 59 72 8b 50 ca bf
       -0.6452595057185438 -0.20558302958980754
000690 da 8f 61 88 86 c1 a2 3f a1 b1 fe 76 b3 e8 b1 3f
       0.036632732532580994 0.06995698599957346
0006a0 6f 0b 12 a3 92 d4 d5 3f 68 c3 a3 8a 65 b1 dc 3f
       0.3410994141087746 0.448327432051022
0006b0 f7 5d 03 2f 95 0f dd 3f 7f ab 69 db af 6e 85 3f
       0.4540760954964464 0.010465024836965984
0006c0 28 93 b3 3f 49 e9 b6 bf 4a ab 1d a3 5f 7d d0 bf
       -0.08949716382228401 -0.25765219620977986
0006d0 44 9e 24 4e 5b f7 c3 3f cb d5 0a 14 81 23 cf bf
       0.1559862262304127 -0.24327100256566178
0006e0 0a 21 15 20 bd f1 da bf 28 5e e0 7a c7 ac cb bf
       -0.42100456364688965 -0.2162103033049203
0006f0 0b 9f 83 a9 6b 59 d8 bf 5e 4a 62 85 f7 0c 8b 3f
       -0.38045779756656434 0.013208326108984977
000700 35 20 08 d3 fa 00 e0 3f 68 2d 10 54 68 cb cc 3f
       0.5001196023668003 0.22495750527046288
000710 79 31 78 25 81 ce d0 bf bb 06 66 ec 82 ff dc 3f
       -0.26260403308039987 0.4530951794223303
000720 2d c4 ab 9c 8f 84 d7 bf a2 f0 47 b1 8b 42 d0 3f
       -0.36746588039301536 0.2540616256008069
000730 a3 ef 21 fc cb 81 b2 bf a2 db b6 82 bc 74 c7 3f
       -0.07229304223613879 0.18325001127751955
000740 c6 85 5b e9 b1 52 cd bf 45 ad f5 9b ce a1 7b bf
       -0.22908615011605898 -0.006746108119254861
000750 75 8f c2 f2 eb b0 c3 bf 07 db 15 43 7e 1a 9e 3f
       -0.15383672097697923 0.02939793858009934
000760 6b 6c 81 0c f8 7a e0 bf ec da 8f e1 e8 de e4 bf
       -0.5150108570336561 -0.6522106557375458
000770 82 5b 52 d6 f5 fa 8b 3f 35 8b 13 e3 e4 38 e4 3f
       0.013662262538032047 0.6319450793347189
000780 75 6d f3 29 e4 14 ec 3f d0 31 c4 89 08 7e e3 3f
       0.8775502032616901 0.6091349306821545
000790 9a 85 18 ef 02 f9 a0 3f c2 03 ee 1c bf bd d7 3f
       0.0331498066773392 0.37095620942278285
0007a0 be 16 2c 96 bf 8c b8 3f 0f c8 b3 83 b4 13 d9 3f
       0.09589764992059721 0.39182770597028677
0007b0 2b d3 02 ab 64 6b d7 3f 08 31 77 f2 f6 5e c6 3f
       0.36592976284309725 0.17477309073581915
0007c0 a6 84 2d d9 f2 2e ea bf 5f 82 ee 95 fc 33 a7 bf
       -0.8182310334924707 -0.045318501760679857
0007d0 89 fa d9 8d 9f 5c d4 3f 42 19 2a 4e 4f fe 84 3f
       0.3181532750385619 0.010250682423486372
0007e0 84 ec 8d 74 94 12 dd bf 4d 19 b1 39 28 4b d1 bf
       -0.4542590273119418 -0.2702122271915826
0007f0 ac 68 ac 45 f3 05 c0 3f f2 01 22 9d ae 9c a1 bf
       0.12518158819222458 -0.03439851444364085

bias_input_to_hidden f8 [20, 1]
000000 06 3d 0d 69 83 ca f6 bf df 4e e5 a1 33 a8 fc bf
       -1.4244417289335742 -1.7910648654987467
000010 e6 ff 6d b3 d1 f3 d3 bf f4 52 62 a8 ba 51 b9 3f
       -0.3117565395586993 0.09890333758296405
000020 0a 14 50 01 d0 3f d9 bf 78 d2 79 cb d0 39 c1 3f
       -0.3945198071308488 0.13457689223618607
000030 df f2 4f 38 66 85 e3 bf 7a e0 f4 fe 86 1b c7 bf
       -0.6100340938424685 -0.1805275673775702
000040 55 f9 20 fb 06 48 d2 3f 74 07 61 20 48 79 c9 3f
       0.2856461956433994 0.19901372509962878
000050 1a 3c 92 82 09 b7 87 bf 84 19 92 aa c9 0d dd 3f
       -0.011579584405152988 0.4539665380219946
000060 2f f1 3d eb ac a4 e7 bf 27 84 34 55 6c a8 f9 3f
       -0.7388519854135093 1.6036189392400588
000070 ad 35 32 61 85 75 ed bf ad 29 c1 f0 a0 48 dd 3f
       -0.9205958269464439 0.4575579024427963
000080 d0 45 c9 8e c7 f5 ec 3f 2c 03 2c c4 ba 84 ea 3f
       0.9050023831170453 0.8287023383601073
000090 1f 51 2e f8 a8 a1 a7 bf 54 3b dc bb 7f 21 f0 bf
       -0.046155243201754674 -1.0081784570972632

weights_hidden_to_output f8 [10, 20]
000000 be 4f 6e cc b4 c0 03 40 d9 7e 6d 03 a2 2e d7 bf
       2.469094845882835 -0.3622212441896245
000010 26 2d d7 18 8d 5d ef bf 1a 93 ba a8 e4 32 c2 bf
       -0.9801698193709043 -0.1421781371947411
000020 42 f9 49 4a 1d e4 04 c0 0d 4f 7a 21 7f 84 ff bf
       -2.6113839916062327 -1.9698478038525906
000030 48 86 8b 82 ab 62 e8 bf ca 26 e9 2a 12 85 f8 bf
       -0.7620446729380967 -1.532488029117689
000040 2f a1 83 6e 9f 86 02 c0 ed 69 16 eb 17 19 05 c0
       -2.315733779327409 -2.6372526518073216
000050 cc 75 d5 9e 3c 60 02 40 83 d1 b9 9e 5e 88 f6 bf
       2.296990624322211 -1.408293361685623
000060 0e f8 a4 d1 4c 72 0f c0 0e 12 8b 73 97 3d c6 3f
       -3.9308105829686673 0.17375462667236302
000070 2c ea db e9 b5 15 0b 40 c7 b2 27 0f 2c 84 e1 bf
       3.3856008787381793 -0.5473842903134817
000080 78 a5 ca e0 7e ee ee 3f 96 f3 10 7a f7 83 05 c0
       0.9666132345638934 -2.6894368683264913
000090 5a f3 ea 33 f2 06 0a c0 5b 94 b7 f2 9a 46 a2 bf
       -3.2533916526867133 -0.035694925430825385
0000a0 3b bd 7f 8b 2c c2 fd 3f b1 16 a0 9c a4 2c d8 3f
       1.859905762594123 0.37772479339069337
0000b0 f0 03 52 2f 84 4c ff bf 6b 23 a9 7e 68 c3 ed 3f
       -1.9561807487918905 0.9301035379258854
0000c0 5f 4e 5a 12 59 30 01 c0 56 ed 81 d4 d9 bc e6 bf
       -2.1486073907670256 -0.7105530882394457
0000d0 e6 d8 64 9a 96 5d cc 3f 4a fd 86 69 1d 3d 11 c0
       0.22160608805433596 -4.309682511200046
0000e0 69 7c bc 32 24 4b e1 bf ba 81 b6 17 30 8f fb bf
       -0.5404225340788688 -1.722457974079687
0000f0 8e 70 af e7 28 2b 05 c0 aa d2 e5 1a 26 b5 f8 3f
       -2.6460741138853967 1.5442257929509347
000100 32 b5 46 f4 eb 7b 0a 40 50 f7 28 14 95 6b dc bf
       3.3105086406782442 -0.4440663048625213
000110 ff db 95 c6 fd 13 f4 bf 82 8e 53 71 48 9a b7 bf
       -1.2548806912652706 -0.09219792143590591
000120 8d e8 16 3e 74 b2 a7 bf 0b cd dc 05 5e 88 00 40
       -0.04628337152412696 2.0665855844505407
000130 fb 05 71 e5 45 5f f1 bf e4 e5 62 ca 42 9e 01 c0
       -1.0857600176390168 -2.202275830405357
000140 93 3a f6 a3 8d bc fc 3f 6c 52 1f 36 ff 59 ed 3f
       1.7960335163840326 0.9172359520985771
000150 03 23 d7 14 0b c2 01 40 6a a2 3e 13 33 de fe bf
       2.219747698607877 -1.9292479278321033
000160 6b 4f 29 ef 05 d8 f9 3f 6e 02 7d e4 41 3d cd 3f
       1.6152400343171063 0.22843192726761025
000170 1a 4a 73 5c 11 5e 0b c0 db 18 28 48 78 f6 c7 bf
       -3.4209315512355376 -0.18720916293404496
000180 45 89 40 6e 87 38 0b c0 90 dc 5f 4d 21 af 03 c0
       -3.4026020635075462 -2.4605127377395277
000190 0c 15 b2 ad af 8e 06 c0 66 fc 03 ca 1e f2 f4 bf
       -2.81967101764406 -1.3091113940461354
0001a0 cc aa 14 b9 43 09 01 40 09 2f 64 2e 83 fe dc bf
       2.129523702567303 -0.453034205726667
0001b0 c1 07 0a 20 01 ee fa 3f 70 31 c2 09 e9 ba dc 3f
       1.6831065417795659 0.4489080996798043
0001c0 14 cf c1 6b d0 d2 f6 bf ee 3c 55 9c 3f b4 0c c0
       -1.426468296934165 -3.588011952735193
0001d0 c2 97 bc 33 89 df db 3f 51 53 fb e9 f5 d3 fe bf
       0.43551855137263484 -1.9267481937324258
0001e0 d0 63 60 d0 ef a6 c1 3f 38 87 c5 e5 ec bf 98 3f
       0.1379070060218326 0.024169637226243185
0001f0 ac 25 b3 69 c4 a6 f8 3f 38 ed 47 a8 d0 1a ec 3f
       1.5407146576784312 0.8782733237016265
000200 e4 c2 e7 b4 25 2a 00 c0 d0 e6 92 e6 63 8f e1 bf
       -2.020579732249063 -0.5487536910433963
000210 01 54 de 76 2e 87 d8 3f 35 db 71 42 b9 39 b4 3f
       0.38325082405327754 0.07900579330622011
000220 c9 66 00 fa f2 fd 01 40 25 88 26 c6 1c d6 09 c0
       2.248998597275975 -3.2295470695981003
000230 50 7c 44 b8 d8 2e 01 40 e9 9e 7b f8 a1 a9 00 c0
       2.1478742977047105 -2.082828465721708
000240 ed de 55 b1 68 50 06 40 c6 29 91 f8 07 4a f7 bf
       2.7892621855097475 -1.4555740079546111
000250 46 0c 33 22 7a 2c 0c c0 17 b3 11 7c b1 22 fe bf
       -3.521717326338634 -1.8834700437975636
000260 44 7a 95 16 7c f8 0e c0 dd 97 05 77 81 4e 02 c0
       -3.8713304294936126 -2.288332872255508
000270 a3 55 cc 8c 92 25 02 c0 fb 65 b5 1d 77 73 de bf
       -2.2683459281785914 -0.47579744244794114
000280 a4 c4 99 6f 09 87 db bf c4 61 8f 76 f5 5f 0c c0
       -0.4301169957971729 -3.546854902506512
000290 25 14 f7 ae 48 37 01 c0 e9 ae 2e ae 25 3b 0d c0
       -2.1519941014435227 -3.653880463409099
0002a0 f5 f7 72 f8 27 4d f7 3f c4 55 b8 b0 df 32 f0 3f
       1.456336946968347 1.0124203589560787
0002b0 b5 c4 37 07 e5 4f 07 c0 cf 3f 95 bd c2 0f f0 bf
       -2.914011055364052 -1.0038478284441117
0002c0 07 64 49 89 9b 32 f5 3f 06 94 d2 50 f8 7c fd bf
       1.3248553622017896 -1.843010249818009
0002d0 36 b7 64 c7 af 25 d2 bf 44 2c 24 a6 89 db f2 3f
       -0.2835502097321866 1.1785980691809224
0002e0 b9 69 2c be c9 70 f4 bf 31 0f 86 3b 15 70 c2 3f
       -1.2775361469890483 0.14404549986294904
0002f0 96 78 15 ef de 6a f3 bf d3 f1 cb 87 ce aa 0d c0
       -1.2135915126050683 -3.7084017380823098
000300 b1 54 15 30 f3 cd f7 bf 14 44 97 b8 26 42 f3 3f
       -1.4877807501082254 1.2036502085286473
000310 d0 26 c3 9f 37 71 e0 3f 07 99 ab a8 dd db 00 40
       0.5138204689366948 2.107356374489544
000320 40 c8 bf 5c b5 d9 06 c0 e6 08 10 9c aa 88 06 c0
       -2.8563029523875514 -2.816731662024824
000330 9d b7 71 6f e8 c3 f3 3f 05 29 ab 56 f9 b3 fa 3f
       1.235329089478433 1.66893895964546
000340 29 18 f9 1b 67 c2 f6 bf 14 bf 0b b6 0b e1 fa bf
       -1.4224616139122281 -1.6799428092162474
000350 89 fa 5f 03 86 3a fd bf 56 fc 9e 5f 56 89 fe bf
       -1.8267879611809426 -1.9085296378323355
000360 c2 3c 13 a7 c5 de 05 40 f6 73 b0 2e b4 5f f6 bf
       2.733775429987504 -1.3983651946830356
000370 e7 92 1a eb 8e 24 fc bf a1 80 da 1d 86 ce df bf
       -1.75892536008285 -0.4969802180803616
000380 01 e8 7e cc f1 50 f4 bf 27 08 a1 18 d0 a3 0d 40
       -1.269761847316204 3.704986755766203
000390 41 34 41 ee 50 87 03 c0 93 0b 10 9b 7c 15 e3 3f
       -2.4410723317764966 0.5963728931968596
0003a0 e4 ca 8e 59 4a 47 ff 3f d7 a4 eb 6f 2d c9 06 c0
       1.9549048899031556 -2.848231195811063
0003b0 05 fd 75 7e 00 87 d0 3f 8f f0 98 9c 14 9d f7 bf
       0.25823986386963355 -1.47584973498218
0003c0 05 c3 ee cf 38 11 01 c0 70 f9 19 ad e1 ef 08 c0
       -2.133409141992504 -3.1171296618987796
0003d0 b6 81 f2 77 06 de 07 c0 9a e9 d3 44 07 2f eb 3f
       -2.9834107752687613 0.849490770749344
0003e0 66 07 82 bf b5 04 fa 3f 7f bd 3f 8b fb 4f b4 bf
       1.626149890973886 -0.07934543752320698
0003f0 58 35 02 50 8c 89 f4 3f ff a4 96 63 2a db f0 bf
       1.2835810780846568 -1.0535072221921948
000400 ea 23 38 b2 6d 95 02 c0 f5 ee 85 b3 5e 17 f8 bf
       -2.3229631350882203 -1.5057055485366935
000410 af b8 c1 40 9f 50 04 c0 bb 3c d1 ce 2e 5a dc 3f
       -2.5393662509078108 0.44300432393078965
000420 5f 66 36 4b 56 13 04 c0 d5 65 2c 90 25 d4 fd bf
       -2.5094419361092117 -1.8642936355375828
000430 45 97 41 22 f7 2d 00 40 cf c6 65 6e 1d f8 01 40
       2.0224440265909913 2.246149885636306
000440 52 21 bd 41 69 fd 0b c0 75 3c 87 24 ee cb 03 c0
       -3.498735917648596 -2.474575314881401
000450 0f 9f 75 e0 be e5 e8 bf b7 42 d4 11 72 21 6e 3f
       -0.7780451187108798 0.003678057472491804
000460 d6 65 5b cf 9f 82 01 c0 df 6b 4a 22 81 8b ef bf
       -2.1887813758628267 -0.98577934930233
000470 b6 33 b3 11 ab 54 04 40 53 cc be 96 77 f1 09 c0
       2.5413419134915456 -3.242903878877351
000480 52 f6 d8 5e a1 80 04 c0 09 a8 cb 82 76 98 02 40
       -2.5628077897988897 2.3244447916413304
000490 04 c7 63 d4 4f a8 d8 bf 1a c7 4f c2 e2 29 ec bf
       -0.3852729391211229 -0.8801130099438723
0004a0 c3 81 49 e6 53 00 fe bf 95 09 60 8e 36 40 f8 bf
       -1.8750800128546963 -1.5156770288018369
0004b0 64 19 7f 5c 61 c1 f2 3f b8 73 35 79 55 c9 b2 bf
       1.1722119916099354 -0.07338461121749063
0004c0 80 45 1c a0 fe a2 c5 bf 41 0f 5e b6 08 76 e6 bf
       -0.1690367013730274 -0.7019084512580563
0004d0 1d b1 ac d2 5f c6 fa bf 41 df c0 7d 1e ad 00 40
       -1.6734312276340184 2.0845308136448755
0004e0 0a fb 38 ff 57 a4 9c 3f e8 be 14 49 55 fc 06 40
       0.02797067160849579 2.8732095441299528
0004f0 34 62 88 7a 26 64 11 c0 71 b7 ba e2 54 32 fb bf
       -4.34780303437633 -1.6997879845252692
000500 c1 3e 09 46 ca 34 f9 bf 56 39 9d 5f 8b 54 02 40
       -1.5753882156167693 2.2912814588409374
000510 24 e8 ad f0 4c 90 ee bf d7 b2 46 d4 da 07 ed bf
       -0.9551148129241978 -0.9072088380831599
000520 b3 2c bc 39 c7 33 08 c0 13 58 87 4a 08 f8 03 c0
       -3.0252823362876256 -2.4961095640710567
000530 60 50 83 93 5d 0f ad bf 0e d0 c2 25 99 85 05 40
       -0.05675785470671779 2.6902335119320986
000540 02 9b 19 3a fe 2a 09 c0 e0 8c f1 a8 50 31 02 c0
       -3.145992711931627 -2.274079627868204
000550 48 1c 7b 19 61 c5 03 c0 f5 b2 5b 63 7d 10 d4 bf
       -2.471376608914884 -0.3135064573569218
000560 d6 95 80 20 4b 65 01 c0 06 15 18 cd df 1b 0e c0
       -2.1744596995583647 -3.7636104605650216
000570 0c a0 0d ee 0f a7 07 c0 c0 e7 5a 7b 20 d1 fc bf
       -2.9565733526142193 -1.8010563677366775
000580 8b 3a 4b 62 ac 23 f0 3f 37 c7 13 c9 af c4 0e c0
       1.0087093200305925 -3.846038409153063
000590 95 c0 87 9f 11 8f d7 3f 6e b7 d8 38 40 ec e8 3f
       0.368107229033748 0.7788392172130736
0005a0 a2 33 b5 27 45 1c f2 bf 38 49 35 10 2f 47 f4 3f
       -1.1319018889509853 1.2673788674479294
0005b0 e9 14 7b 78 cf 0c 0b c0 55 42 2e 51 0c 9d 05 c0
       -3.381255093818812 -2.7016836492769394
0005c0 41 50 e5 2a 8f bd 00 40 3b 68 dc 85 8f b4 fc bf
       2.0925582267027782 -1.794082186598202
0005d0 bb 07 ec c0 42 e5 82 3f 92 f5 d1 12 4b a7 fb bf
       0.009226342690002434 -1.7283430800592652
0005e0 4b 92 6e 00 ba ce ed 3f 37 c3 cc 6e cc 02 04 c0
       0.931485176890939 -2.501366487144334
0005f0 6e ba 5f e0 a6 33 fc 3f c8 de 94 d5 30 de 0c c0
       1.7626103176695795 -3.6084915815407363
000600 5a 52 12 3c c0 59 f9 bf ff 24 40 d7 7b 1e f4 bf
       -1.5844118448777835 -1.2574423225617577
000610 b9 95 47 4f 20 73 e8 3f 52 6c 1b 77 e5 ec 08 c0
       0.7640534923963777 -3.115672045254123
000620 08 c4 eb 55 c1 0a 00 40 5d 7c 08 c6 c4 b4 eb 3f
       2.00525157094717 0.8658164851984896
000630 39 6d ea 2d 7e 73 ed 3f 20 e8 54 6d 9a 93 0a c0
       0.9203482529441437 -3.3220718900238495

bias_hidden_to_output f8 [10, 1]
000000 f5 bd b7 3c 1b af 03 40 9b 64 7f 9f 69 c9 f1 3f
       2.4605011695455183 1.111672995603192
000010 48 b9 db 6e ea 2c 01 40 c6 bb 0e 39 74 f2 08 40
       2.1469315205387467 3.1183857400533013
000020 d1 f6 69 e3 12 85 fb 3f aa 59 f6 54 20 34 f0 3f
       1.719988716445574 1.012726146587378
000030 f4 77 35 b0 46 97 fc 3f 83 cf da 68 36 5e f5 3f
       1.786932648006311 1.3355011077773902
000040 0b 0c 12 71 7c cc 01 40 e0 dc 3b 3e 78 93 02 40
       2.2248467286713143 2.322006689264171
